…
sercontent.com/a/default-user=s64","userId":"11023693490829624613"}},"outputId":"b5e88765-445a-41cb-d8ac-cc4be0096cae"},"execution_count":3,"outputs":[{"output_type":"stream","name":"stdout","text":["Model: \"model\"\n","_________________________________________________________________\n"," Layer (type)                Output Shape              Param #   \n","=================================================================\n"," input_1 (InputLayer)        [(None, 200)]             0         \n","                                                                 \n"," Dense184 (Dense)            (None, 184)               36984     \n","                                                                 \n"," Dense168 (Dense)            (None, 168)               31080     \n","                                                                 \n"," Dense152 (Dense)            (None, 152)               25688     \n","                                                                 \n"," Dense136 (Dense)            (None, 136)               20808     \n","                                                                 \n"," Dense120 (Dense)            (None, 120)               16440     \n","                                                                 \n"," Dense104 (Dense)            (None, 104)               12584     \n","                                                                 \n"," Dense88 (Dense)             (None, 88)                9240      \n","                                                                 \n"," Dense72 (Dense)             (None, 72)                6408      \n","                                                                 \n"," Dense56 (Dense)             (None, 56)                4088      \n","                                                                 \n"," Dense40 (Dense)             (None, 40)                2280      \n","                                                                 \n"," Dense24 (Dense)             (None, 24)                984       \n","                                                                 \n"," Dense8 (Dense)              (None, 8)                 200       \n","                                                                 \n"," prediction (Dense)          (None, 1)                 9         \n","                                                                 \n","=================================================================\n","Total params: 166,793\n","Trainable params: 166,793\n","Non-trainable params: 0\n","_________________________________________________________________\n"]}]},{"cell_type":"code","source":["tf.keras.utils.plot_model(model, show_shapes=True)"],"meta
…
