…
content.com/a/default-user=s64","userId":"11023693490829624613"}},"outputId":"50cb1fe5-7d22-4fc5-9559-9595ce320b71"},"execution_count":null,"outputs":[{"output_type":"stream","name":"stdout","text":["Model: \"model\"\n","_________________________________________________________________\n"," Layer (type)                Output Shape              Param #   \n","=================================================================\n"," input_1 (InputLayer)        [(None, 768)]             0         \n","                                                                 \n"," Dense672 (Dense)            (None, 672)               516768    \n","                                                                 \n"," Dense576 (Dense)            (None, 576)               387648    \n","                                                                 \n"," Dense480 (Dense)            (None, 480)               276960    \n","                                                                 \n"," Dense384 (Dense)            (None, 384)               184704    \n","                                                                 \n"," Dense288 (Dense)            (None, 288)               110880    \n","                                                                 \n"," Dense192 (Dense)            (None, 192)               55488     \n","                                                                 \n"," Dense96 (Dense)             (None, 96)                18528     \n","                                                                 \n"," Dense32 (Dense)             (None, 32)                3104      \n","                                                                 \n"," Dense16 (Dense)             (None, 16)                528       \n","                                                                 \n"," prediction (Dense)          (None, 1)                 17        \n","                                                                 \n","=================================================================\n","Total params: 1,554,625\n","Trainable params: 1,554,625\n","Non-trainable params: 0\n","_________________________________________________________________\n"]}]},{"cell_type":"code","source":["tf.keras.utils.plot_model(model, show_shapes=True)"],"m
…
