…
T890H8XJDAe6L=s64","userId":"10975385014877711908"},"user_tz":-60},"id":"olpkECOW2w1J","outputId":"4fc98e74-8427-45a7-fd63-c7d8221f1542"},"outputs":[{"name":"stdout","output_type":"stream","text":["Model: \"model_2\"\n","_________________________________________________________________\n"," Layer (type)                Output Shape              Param #   \n","=================================================================\n"," input_3 (InputLayer)        [(None, 1536)]            0         \n","                                                                 \n"," Dense720 (Dense)            (None, 1408)              2164096   \n","                                                                 \n"," Dense1280 (Dense)           (None, 1280)              1803520   \n","                                                                 \n"," Dense1152 (Dense)           (None, 1152)              1475712   \n","                                                                 \n"," Dense1024 (Dense)           (None, 1024)              1180672   \n","                                                                 \n"," Dense896 (Dense)            (None, 896)               918400    \n","                                                                 \n"," Dense768 (Dense)            (None, 768)               688896    \n","                                                                 \n"," Dense640 (Dense)            (None, 640)               492160    \n","                                                                 \n"," Dense512 (Dense)            (None, 512)               328192    \n","                                                                 \n"," Dense384 (Dense)            (None, 384)               196992    \n","                                                                 \n"," Dense256 (Dense)            (None, 256)               98560     \n","                                                                 \n"," Dense128 (Dense)            (None, 128)               32896     \n","                                                                 \n"," Dense64 (Dense)             (None, 64)                8256      \n","                                                                 \n"," Dense32 (Dense)             (None, 32)                2080      \n","                                                                 \n"," Dense16 (Dense)             (None, 16)                528       \n","                                                                 \n"," prediction (Dense)          (None, 1)                 17        \n","                                                                 \n","=================================================================\n","Total params: 9,390,977\n","Trainable params: 9,390,977\n","Non-trainable params: 0\n","_________________________________________________________________\n"]}],"source":["model = nn_pace128()\n","model.summary()"]},{"cell_type":"code","execution_c
…
